nohup: ignoring input
cuda:1
CIFAR10
features.0.weight
features.0.bias
features.1.weight
features.1.bias
features.1.running_mean
features.1.running_var
features.1.num_batches_tracked
features.4.weight
features.4.bias
features.5.weight
features.5.bias
features.5.running_mean
features.5.running_var
features.5.num_batches_tracked
train decoder model...
----train fsha----
client_net: 
VGG(
  (features): Sequential(
    (0): Conv2d(3, 32, kernel_size=(3, 3), stride=(1, 1), padding=(1, 1))
    (1): BatchNorm2d(32, eps=1e-05, momentum=0.1, affine=True, track_running_stats=True)
    (2): Tanh()
    (3): MaxPool2d(kernel_size=2, stride=2, padding=0, dilation=1, ceil_mode=False)
    (4): Conv2d(32, 64, kernel_size=(3, 3), stride=(1, 1), padding=(1, 1))
    (5): BatchNorm2d(64, eps=1e-05, momentum=0.1, affine=True, track_running_stats=True)
    (6): Tanh()
  )
  (denses): Sequential()
)
shadow_net: 
VGG(
  (features): Sequential(
    (0): Conv2d(3, 32, kernel_size=(3, 3), stride=(1, 1), padding=(1, 1))
    (1): BatchNorm2d(32, eps=1e-05, momentum=0.1, affine=True, track_running_stats=True)
    (2): Tanh()
    (3): MaxPool2d(kernel_size=2, stride=2, padding=0, dilation=1, ceil_mode=False)
    (4): Conv2d(32, 64, kernel_size=(3, 3), stride=(1, 1), padding=(1, 1))
    (5): BatchNorm2d(64, eps=1e-05, momentum=0.1, affine=True, track_running_stats=True)
    (6): Tanh()
  )
  (denses): Sequential()
)
decoder_net: 
VGG5Decoder(
  (features): Sequential(
    (0): Conv2d(64, 32, kernel_size=(3, 3), stride=(1, 1), padding=(1, 1))
    (1): BatchNorm2d(32, eps=1e-05, momentum=0.1, affine=True, track_running_stats=True)
    (2): Tanh()
    (3): ConvTranspose2d(32, 3, kernel_size=(3, 3), stride=(2, 2), padding=(1, 1), output_padding=(1, 1))
    (4): BatchNorm2d(3, eps=1e-05, momentum=0.1, affine=True, track_running_stats=True)
    (5): Tanh()
  )
  (denses): Sequential()
)
discriminator_net: 
discriminator_net(
  (nnlayers): Sequential(
    (0): Linear(in_features=16, out_features=8, bias=True)
    (1): LeakyReLU(negative_slope=0.01)
    (2): Linear(in_features=8, out_features=1, bias=True)
  )
)
Epoch 0

0it [00:00, ?it/s]
1it [00:03,  3.17s/it]
4it [00:03,  1.59it/s]
8it [00:03,  3.77it/s]
12it [00:03,  6.42it/s]
16it [00:03,  9.55it/s]
20it [00:03, 13.05it/s]
24it [00:03, 16.66it/s]
28it [00:03, 20.22it/s]
32it [00:04, 23.62it/s]
36it [00:04, 26.58it/s]
40it [00:04, 27.72it/s]
44it [00:04, 29.20it/s]
48it [00:04, 30.17it/s]
…
1500it [00:42, 33.79it/s]
1504it [00:42, 34.07it/s]
1508it [00:42, 34.62it/s]
1512it [00:42, 34.53it/s]
1516it [00:42, 34.32it/s]
1520it [00:42, 34.36it/s]
1524it [00:42, 34.43it/s]
1528it [00:42, 34.66it/s]
1532it [00:42, 34.43it/s]
1536it [00:43, 34.36it/s]
1540it [00:43, 34.24it/s]
1544it [00:43, 34.55it/s]
1548it [00:43, 34.43it/s]
1552it [00:43, 34.82it/s]
1556it [00:43, 35.09it/s]
1560it [00:43, 35.23it/s]
1563it [00:43, 35.67it/s]
Epoch  24 edge Loss:  0.40560272 fsha Loss:  0.013033999 D Loss:  0.5491686
model saved
----train decoder----
client_net: 
VGG(
  (features): Sequential(
    (0): Conv2d(3, 32, kernel_size=(3, 3), stride=(1, 1), padding=(1, 1))
    (1): BatchNorm2d(32, eps=1e-05, momentum=0.1, affine=True, track_running_stats=True)
    (2): Tanh()
    (3): MaxPool2d(kernel_size=2, stride=2, padding=0, dilation=1, ceil_mode=False)
    (4): Conv2d(32, 64, kernel_size=(3, 3), stride=(1, 1), padding=(1, 1))
    (5): BatchNorm2d(64, eps=1e-05, momentum=0.1, affine=True, track_running_stats=True)
    (6): Tanh()
  )
  (denses): Sequential()
)
decoder_net: 
VGG5Decoder(
  (features): Sequential(
    (0): Conv2d(64, 32, kernel_size=(3, 3), stride=(1, 1), padding=(1, 1))
    (1): BatchNorm2d(32, eps=1e-05, momentum=0.1, affine=True, track_running_stats=True)
    (2): Tanh()
    (3): ConvTranspose2d(32, 3, kernel_size=(3, 3), stride=(2, 2), padding=(1, 1), output_padding=(1, 1))
    (4): BatchNorm2d(3, eps=1e-05, momentum=0.1, affine=True, track_running_stats=True)
    (5): Tanh()
  )
  (denses): Sequential()
)

  0%|          | 0/10000 [00:00<?, ?it/s]
  0%|          | 0/10000 [00:00<?, ?it/s]
Traceback (most recent call last):
  File "model_inversion_fsha_attack.py", line 221, in <module>
    fsha_attack.inverse(client_net=client_net,
  File "/home/dengruijun/data/FinTech/PP-Split/ppsplit/attacks/model_inversion/inverse_model.py", line 94, in inverse
…
